[06:37:12] DeepAR.Train: Loading the datasets...
[06:37:16] DeepAR.Data: train_len: 6330557
[06:37:16] DeepAR.Data: building datasets from data/M5...
[06:37:16] DeepAR.Data: test_len: 121960
[06:37:16] DeepAR.Data: building datasets from data/M5...
[06:37:17] DeepAR.Data: weights: tensor([1.0861e-07, 1.1211e-07, 1.1036e-07,  ..., 1.8282e-07, 1.8322e-07,
        1.8728e-07], dtype=torch.float64)
[06:37:17] DeepAR.Data: num samples: 6330557
[06:37:17] DeepAR.Train: Loading complete.
[06:37:17] DeepAR.Train: Model: 
Net(
  (embedding): Embedding(30490, 20)
  (lstm): LSTM(27, 40, num_layers=3, dropout=0.1)
  (relu): ReLU()
  (distribution_mu): Linear(in_features=120, out_features=1, bias=True)
  (distribution_presigma): Linear(in_features=120, out_features=1, bias=True)
  (distribution_sigma): Softplus(beta=1, threshold=20)
)
[06:37:17] DeepAR.Train: Starting training for 20 epoch(s)
[06:37:17] DeepAR.Train: begin training and evaluation
[06:37:17] DeepAR.Train: Epoch 1/20
[19:14:54] DeepAR.Train: Loading the datasets...
[19:14:58] DeepAR.Data: train_len: 6330557
[19:14:58] DeepAR.Data: building datasets from data\M5...
[19:14:58] DeepAR.Data: test_len: 121960
[19:14:58] DeepAR.Data: building datasets from data\M5...
[19:14:58] DeepAR.Data: weights: tensor([1.0861e-07, 1.1211e-07, 1.1036e-07,  ..., 1.8282e-07, 1.8322e-07,
        1.8728e-07], dtype=torch.float64)
[19:14:58] DeepAR.Data: num samples: 6330557
[19:14:58] DeepAR.Train: Loading complete.
[19:14:58] DeepAR.Train: Model: 
Net(
  (embedding): Embedding(30490, 20)
  (lstm): LSTM(27, 40, num_layers=3, dropout=0.1)
  (relu): ReLU()
  (distribution_mu): Linear(in_features=120, out_features=1, bias=True)
  (distribution_presigma): Linear(in_features=120, out_features=1, bias=True)
  (distribution_sigma): Softplus(beta=1, threshold=20)
)
[19:14:58] DeepAR.Train: Starting training for 20 epoch(s)
[19:14:58] DeepAR.Train: begin training and evaluation
[19:14:58] DeepAR.Train: Epoch 1/20
[19:47:01] DeepAR.Train: Not using cuda...
[19:47:01] DeepAR.Train: Loading the datasets...
[19:47:01] DeepAR.Train: Loading the datasets...
[19:47:13] DeepAR.Data: train_len: 6330557
…
[19:50:36] DeepAR.Data: weights: tensor([1.0861e-07, 1.1211e-07, 1.1036e-07,  ..., 1.8282e-07, 1.8322e-07,
        1.8728e-07], dtype=torch.float64)
[19:50:36] DeepAR.Data: weights: tensor([1.0861e-07, 1.1211e-07, 1.1036e-07,  ..., 1.8282e-07, 1.8322e-07,
        1.8728e-07], dtype=torch.float64)
[19:50:36] DeepAR.Data: num samples: 6330557
[19:50:36] DeepAR.Data: num samples: 6330557
[19:50:36] DeepAR.Data: num samples: 6330557
[19:50:36] DeepAR.Train: Loading complete.
[19:50:36] DeepAR.Train: Loading complete.
[19:50:36] DeepAR.Train: Loading complete.
[19:50:36] DeepAR.Train: Model: 
Net(
  (embedding): Embedding(30490, 20)
  (lstm): LSTM(27, 40, num_layers=3, dropout=0.1)
  (relu): ReLU()
  (distribution_mu): Linear(in_features=120, out_features=1, bias=True)
  (distribution_presigma): Linear(in_features=120, out_features=1, bias=True)
  (distribution_sigma): Softplus(beta=1, threshold=20)
)
[19:50:36] DeepAR.Train: Model: 
Net(
  (embedding): Embedding(30490, 20)
  (lstm): LSTM(27, 40, num_layers=3, dropout=0.1)
  (relu): ReLU()
  (distribution_mu): Linear(in_features=120, out_features=1, bias=True)
  (distribution_presigma): Linear(in_features=120, out_features=1, bias=True)
  (distribution_sigma): Softplus(beta=1, threshold=20)
)
[19:50:36] DeepAR.Train: Model: 
Net(
  (embedding): Embedding(30490, 20)
  (lstm): LSTM(27, 40, num_layers=3, dropout=0.1)
  (relu): ReLU()
  (distribution_mu): Linear(in_features=120, out_features=1, bias=True)
  (distribution_presigma): Linear(in_features=120, out_features=1, bias=True)
  (distribution_sigma): Softplus(beta=1, threshold=20)
)
[19:50:36] DeepAR.Train: Starting training for 20 epoch(s)
[19:50:36] DeepAR.Train: Starting training for 20 epoch(s)
[19:50:36] DeepAR.Train: Starting training for 20 epoch(s)
[19:50:36] DeepAR.Train: begin training and evaluation
[19:50:36] DeepAR.Train: begin training and evaluation
[19:50:36] DeepAR.Train: begin training and evaluation
…
[20:25:49] DeepAR.Data: weights: tensor([1.0861e-07, 1.1211e-07, 1.1036e-07,  ..., 1.8282e-07, 1.8322e-07,
        1.8728e-07], dtype=torch.float64)
[20:25:49] DeepAR.Data: weights: tensor([1.0861e-07, 1.1211e-07, 1.1036e-07,  ..., 1.8282e-07, 1.8322e-07,
        1.8728e-07], dtype=torch.float64)
[20:25:49] DeepAR.Data: num samples: 6330557
[20:25:49] DeepAR.Data: num samples: 6330557
[20:25:49] DeepAR.Data: num samples: 6330557
[20:25:49] DeepAR.Data: num samples: 6330557
[20:25:49] DeepAR.Train: Loading complete.
[20:25:49] DeepAR.Train: Loading complete.
[20:25:49] DeepAR.Train: Loading complete.
[20:25:49] DeepAR.Train: Loading complete.
[20:25:49] DeepAR.Train: Model: 
Net(
  (embedding): Embedding(30490, 20)
  (lstm): LSTM(27, 40, num_layers=3, dropout=0.1)
  (relu): ReLU()
  (distribution_mu): Linear(in_features=120, out_features=1, bias=True)
  (distribution_presigma): Linear(in_features=120, out_features=1, bias=True)
  (distribution_sigma): Softplus(beta=1, threshold=20)
)
[20:25:49] DeepAR.Train: Model: 
Net(
  (embedding): Embedding(30490, 20)
  (lstm): LSTM(27, 40, num_layers=3, dropout=0.1)
  (relu): ReLU()
  (distribution_mu): Linear(in_features=120, out_features=1, bias=True)
  (distribution_presigma): Linear(in_features=120, out_features=1, bias=True)
  (distribution_sigma): Softplus(beta=1, threshold=20)
)
[20:25:49] DeepAR.Train: Model: 
Net(
  (embedding): Embedding(30490, 20)
  (lstm): LSTM(27, 40, num_layers=3, dropout=0.1)
  (relu): ReLU()
  (distribution_mu): Linear(in_features=120, out_features=1, bias=True)
  (distribution_presigma): Linear(in_features=120, out_features=1, bias=True)
  (distribution_sigma): Softplus(beta=1, threshold=20)
)
[20:25:49] DeepAR.Train: Model: 
Net(
  (embedding): Embedding(30490, 20)
  (lstm): LSTM(27, 40, num_layers=3, dropout=0.1)
  (relu): ReLU()
  (distribution_mu): Linear(in_features=120, out_features=1, bias=True)
  (distribution_presigma): Linear(in_features=120, out_features=1, bias=True)
  (distribution_sigma): Softplus(beta=1, threshold=20)
)
[20:25:49] DeepAR.Train: Starting training for 20 epoch(s)
[20:25:49] DeepAR.Train: Starting training for 20 epoch(s)
[20:25:49] DeepAR.Train: Starting training for 20 epoch(s)
[20:25:49] DeepAR.Train: Starting training for 20 epoch(s)
[20:25:49] DeepAR.Train: begin training and evaluation
[20:25:49] DeepAR.Train: begin training and evaluation
…
[20:27:01] DeepAR.Data: weights: tensor([1.0861e-07, 1.1211e-07, 1.1036e-07,  ..., 1.8282e-07, 1.8322e-07,
        1.8728e-07], dtype=torch.float64)
[20:27:01] DeepAR.Data: num samples: 6330557
[20:27:01] DeepAR.Data: num samples: 6330557
[20:27:01] DeepAR.Data: num samples: 6330557
[20:27:01] DeepAR.Data: num samples: 6330557
[20:27:01] DeepAR.Data: num samples: 6330557
[20:27:01] DeepAR.Train: Loading complete.
[20:27:01] DeepAR.Train: Loading complete.
[20:27:01] DeepAR.Train: Loading complete.
[20:27:01] DeepAR.Train: Loading complete.
[20:27:01] DeepAR.Train: Loading complete.
[20:27:01] DeepAR.Train: Model: 
Net(
  (embedding): Embedding(30490, 20)
  (lstm): LSTM(27, 40, num_layers=3, dropout=0.1)
  (relu): ReLU()
  (distribution_mu): Linear(in_features=120, out_features=1, bias=True)
  (distribution_presigma): Linear(in_features=120, out_features=1, bias=True)
  (distribution_sigma): Softplus(beta=1, threshold=20)
)
[20:27:01] DeepAR.Train: Model: 
Net(
  (embedding): Embedding(30490, 20)
  (lstm): LSTM(27, 40, num_layers=3, dropout=0.1)
  (relu): ReLU()
  (distribution_mu): Linear(in_features=120, out_features=1, bias=True)
  (distribution_presigma): Linear(in_features=120, out_features=1, bias=True)
  (distribution_sigma): Softplus(beta=1, threshold=20)
)
[20:27:01] DeepAR.Train: Model: 
Net(
  (embedding): Embedding(30490, 20)
  (lstm): LSTM(27, 40, num_layers=3, dropout=0.1)
  (relu): ReLU()
  (distribution_mu): Linear(in_features=120, out_features=1, bias=True)
  (distribution_presigma): Linear(in_features=120, out_features=1, bias=True)
  (distribution_sigma): Softplus(beta=1, threshold=20)
)
[20:27:01] DeepAR.Train: Model: 
Net(
  (embedding): Embedding(30490, 20)
  (lstm): LSTM(27, 40, num_layers=3, dropout=0.1)
  (relu): ReLU()
  (distribution_mu): Linear(in_features=120, out_features=1, bias=True)
  (distribution_presigma): Linear(in_features=120, out_features=1, bias=True)
  (distribution_sigma): Softplus(beta=1, threshold=20)
)
[20:27:01] DeepAR.Train: Model: 
Net(
  (embedding): Embedding(30490, 20)
  (lstm): LSTM(27, 40, num_layers=3, dropout=0.1)
  (relu): ReLU()
  (distribution_mu): Linear(in_features=120, out_features=1, bias=True)
  (distribution_presigma): Linear(in_features=120, out_features=1, bias=True)
  (distribution_sigma): Softplus(beta=1, threshold=20)
)
[20:27:01] DeepAR.Train: Starting training for 20 epoch(s)
[20:27:01] DeepAR.Train: Starting training for 20 epoch(s)
[20:27:01] DeepAR.Train: Starting training for 20 epoch(s)
[20:27:01] DeepAR.Train: Starting training for 20 epoch(s)
[20:27:01] DeepAR.Train: Starting training for 20 epoch(s)
[20:27:01] DeepAR.Train: begin training and evaluation
…
        1.8728e-07], dtype=torch.float64)
[20:41:31] DeepAR.Data: num samples: 6330557
[20:41:31] DeepAR.Data: num samples: 6330557
[20:41:31] DeepAR.Data: num samples: 6330557
[20:41:31] DeepAR.Data: num samples: 6330557
[20:41:31] DeepAR.Data: num samples: 6330557
[20:41:31] DeepAR.Data: num samples: 6330557
[20:41:31] DeepAR.Train: Loading complete.
[20:41:31] DeepAR.Train: Loading complete.
[20:41:31] DeepAR.Train: Loading complete.
[20:41:31] DeepAR.Train: Loading complete.
[20:41:31] DeepAR.Train: Loading complete.
[20:41:31] DeepAR.Train: Loading complete.
[20:41:31] DeepAR.Train: Model: 
Net(
  (embedding): Embedding(30490, 20)
  (lstm): LSTM(27, 40, num_layers=3, dropout=0.1)
  (relu): ReLU()
  (distribution_mu): Linear(in_features=120, out_features=1, bias=True)
  (distribution_presigma): Linear(in_features=120, out_features=1, bias=True)
  (distribution_sigma): Softplus(beta=1, threshold=20)
)
[20:41:31] DeepAR.Train: Model: 
Net(
  (embedding): Embedding(30490, 20)
  (lstm): LSTM(27, 40, num_layers=3, dropout=0.1)
  (relu): ReLU()
  (distribution_mu): Linear(in_features=120, out_features=1, bias=True)
  (distribution_presigma): Linear(in_features=120, out_features=1, bias=True)
  (distribution_sigma): Softplus(beta=1, threshold=20)
)
[20:41:31] DeepAR.Train: Model: 
Net(
  (embedding): Embedding(30490, 20)
  (lstm): LSTM(27, 40, num_layers=3, dropout=0.1)
  (relu): ReLU()
  (distribution_mu): Linear(in_features=120, out_features=1, bias=True)
  (distribution_presigma): Linear(in_features=120, out_features=1, bias=True)
  (distribution_sigma): Softplus(beta=1, threshold=20)
)
[20:41:31] DeepAR.Train: Model: 
Net(
  (embedding): Embedding(30490, 20)
  (lstm): LSTM(27, 40, num_layers=3, dropout=0.1)
  (relu): ReLU()
  (distribution_mu): Linear(in_features=120, out_features=1, bias=True)
  (distribution_presigma): Linear(in_features=120, out_features=1, bias=True)
  (distribution_sigma): Softplus(beta=1, threshold=20)
)
[20:41:31] DeepAR.Train: Model: 
Net(
  (embedding): Embedding(30490, 20)
  (lstm): LSTM(27, 40, num_layers=3, dropout=0.1)
  (relu): ReLU()
  (distribution_mu): Linear(in_features=120, out_features=1, bias=True)
  (distribution_presigma): Linear(in_features=120, out_features=1, bias=True)
  (distribution_sigma): Softplus(beta=1, threshold=20)
)
[20:41:31] DeepAR.Train: Model: 
Net(
  (embedding): Embedding(30490, 20)
  (lstm): LSTM(27, 40, num_layers=3, dropout=0.1)
  (relu): ReLU()
  (distribution_mu): Linear(in_features=120, out_features=1, bias=True)
  (distribution_presigma): Linear(in_features=120, out_features=1, bias=True)
  (distribution_sigma): Softplus(beta=1, threshold=20)
)
[20:41:31] DeepAR.Train: Starting training for 20 epoch(s)
[20:41:31] DeepAR.Train: Starting training for 20 epoch(s)
[20:41:31] DeepAR.Train: Starting training for 20 epoch(s)
[20:41:31] DeepAR.Train: Starting training for 20 epoch(s)
[20:41:31] DeepAR.Train: Starting training for 20 epoch(s)
[20:41:31] DeepAR.Train: Starting training for 20 epoch(s)
…
[20:42:14] DeepAR.Data: num samples: 6330557
[20:42:14] DeepAR.Data: num samples: 6330557
[20:42:14] DeepAR.Data: num samples: 6330557
[20:42:14] DeepAR.Data: num samples: 6330557
[20:42:14] DeepAR.Data: num samples: 6330557
[20:42:14] DeepAR.Data: num samples: 6330557
[20:42:14] DeepAR.Train: Loading complete.
[20:42:14] DeepAR.Train: Loading complete.
[20:42:14] DeepAR.Train: Loading complete.
[20:42:14] DeepAR.Train: Loading complete.
[20:42:14] DeepAR.Train: Loading complete.
[20:42:14] DeepAR.Train: Loading complete.
[20:42:14] DeepAR.Train: Loading complete.
[20:42:14] DeepAR.Train: Model: 
Net(
  (embedding): Embedding(30490, 20)
  (lstm): LSTM(27, 40, num_layers=3, dropout=0.1)
  (relu): ReLU()
  (distribution_mu): Linear(in_features=120, out_features=1, bias=True)
  (distribution_presigma): Linear(in_features=120, out_features=1, bias=True)
  (distribution_sigma): Softplus(beta=1, threshold=20)
)
[20:42:14] DeepAR.Train: Model: 
Net(
  (embedding): Embedding(30490, 20)
  (lstm): LSTM(27, 40, num_layers=3, dropout=0.1)
  (relu): ReLU()
  (distribution_mu): Linear(in_features=120, out_features=1, bias=True)
  (distribution_presigma): Linear(in_features=120, out_features=1, bias=True)
  (distribution_sigma): Softplus(beta=1, threshold=20)
)
[20:42:14] DeepAR.Train: Model: 
Net(
  (embedding): Embedding(30490, 20)
  (lstm): LSTM(27, 40, num_layers=3, dropout=0.1)
  (relu): ReLU()
  (distribution_mu): Linear(in_features=120, out_features=1, bias=True)
  (distribution_presigma): Linear(in_features=120, out_features=1, bias=True)
  (distribution_sigma): Softplus(beta=1, threshold=20)
)
[20:42:14] DeepAR.Train: Model: 
Net(
  (embedding): Embedding(30490, 20)
  (lstm): LSTM(27, 40, num_layers=3, dropout=0.1)
  (relu): ReLU()
  (distribution_mu): Linear(in_features=120, out_features=1, bias=True)
  (distribution_presigma): Linear(in_features=120, out_features=1, bias=True)
  (distribution_sigma): Softplus(beta=1, threshold=20)
)
[20:42:14] DeepAR.Train: Model: 
Net(
  (embedding): Embedding(30490, 20)
  (lstm): LSTM(27, 40, num_layers=3, dropout=0.1)
  (relu): ReLU()
  (distribution_mu): Linear(in_features=120, out_features=1, bias=True)
  (distribution_presigma): Linear(in_features=120, out_features=1, bias=True)
  (distribution_sigma): Softplus(beta=1, threshold=20)
)
[20:42:14] DeepAR.Train: Model: 
Net(
  (embedding): Embedding(30490, 20)
  (lstm): LSTM(27, 40, num_layers=3, dropout=0.1)
  (relu): ReLU()
  (distribution_mu): Linear(in_features=120, out_features=1, bias=True)
  (distribution_presigma): Linear(in_features=120, out_features=1, bias=True)
  (distribution_sigma): Softplus(beta=1, threshold=20)
)
[20:42:14] DeepAR.Train: Model: 
Net(
  (embedding): Embedding(30490, 20)
  (lstm): LSTM(27, 40, num_layers=3, dropout=0.1)
  (relu): ReLU()
  (distribution_mu): Linear(in_features=120, out_features=1, bias=True)
  (distribution_presigma): Linear(in_features=120, out_features=1, bias=True)
  (distribution_sigma): Softplus(beta=1, threshold=20)
)
[20:42:14] DeepAR.Train: Starting training for 20 epoch(s)
[20:42:14] DeepAR.Train: Starting training for 20 epoch(s)
[20:42:14] DeepAR.Train: Starting training for 20 epoch(s)
[20:42:14] DeepAR.Train: Starting training for 20 epoch(s)
[20:42:14] DeepAR.Train: Starting training for 20 epoch(s)
[20:42:14] DeepAR.Train: Starting training for 20 epoch(s)
…
[21:17:56] DeepAR.Data: num samples: 6330557
[21:17:56] DeepAR.Data: num samples: 6330557
[21:17:56] DeepAR.Data: num samples: 6330557
[21:17:56] DeepAR.Data: num samples: 6330557
[21:17:56] DeepAR.Data: num samples: 6330557
[21:17:56] DeepAR.Train: Loading complete.
[21:17:56] DeepAR.Train: Loading complete.
[21:17:56] DeepAR.Train: Loading complete.
[21:17:56] DeepAR.Train: Loading complete.
[21:17:56] DeepAR.Train: Loading complete.
[21:17:56] DeepAR.Train: Loading complete.
[21:17:56] DeepAR.Train: Loading complete.
[21:17:56] DeepAR.Train: Loading complete.
[21:17:56] DeepAR.Train: Model: 
Net(
  (embedding): Embedding(30490, 20)
  (lstm): LSTM(27, 40, num_layers=3, dropout=0.1)
  (relu): ReLU()
  (distribution_mu): Linear(in_features=120, out_features=1, bias=True)
  (distribution_presigma): Linear(in_features=120, out_features=1, bias=True)
  (distribution_sigma): Softplus(beta=1, threshold=20)
)
[21:17:56] DeepAR.Train: Model: 
Net(
  (embedding): Embedding(30490, 20)
  (lstm): LSTM(27, 40, num_layers=3, dropout=0.1)
  (relu): ReLU()
  (distribution_mu): Linear(in_features=120, out_features=1, bias=True)
  (distribution_presigma): Linear(in_features=120, out_features=1, bias=True)
  (distribution_sigma): Softplus(beta=1, threshold=20)
)
[21:17:56] DeepAR.Train: Model: 
Net(
  (embedding): Embedding(30490, 20)
  (lstm): LSTM(27, 40, num_layers=3, dropout=0.1)
  (relu): ReLU()
  (distribution_mu): Linear(in_features=120, out_features=1, bias=True)
  (distribution_presigma): Linear(in_features=120, out_features=1, bias=True)
  (distribution_sigma): Softplus(beta=1, threshold=20)
)
[21:17:56] DeepAR.Train: Model: 
Net(
  (embedding): Embedding(30490, 20)
  (lstm): LSTM(27, 40, num_layers=3, dropout=0.1)
  (relu): ReLU()
  (distribution_mu): Linear(in_features=120, out_features=1, bias=True)
  (distribution_presigma): Linear(in_features=120, out_features=1, bias=True)
  (distribution_sigma): Softplus(beta=1, threshold=20)
)
[21:17:56] DeepAR.Train: Model: 
Net(
  (embedding): Embedding(30490, 20)
  (lstm): LSTM(27, 40, num_layers=3, dropout=0.1)
  (relu): ReLU()
  (distribution_mu): Linear(in_features=120, out_features=1, bias=True)
  (distribution_presigma): Linear(in_features=120, out_features=1, bias=True)
  (distribution_sigma): Softplus(beta=1, threshold=20)
)
[21:17:56] DeepAR.Train: Model: 
Net(
  (embedding): Embedding(30490, 20)
  (lstm): LSTM(27, 40, num_layers=3, dropout=0.1)
  (relu): ReLU()
  (distribution_mu): Linear(in_features=120, out_features=1, bias=True)
  (distribution_presigma): Linear(in_features=120, out_features=1, bias=True)
  (distribution_sigma): Softplus(beta=1, threshold=20)
)
[21:17:56] DeepAR.Train: Model: 
Net(
  (embedding): Embedding(30490, 20)
  (lstm): LSTM(27, 40, num_layers=3, dropout=0.1)
  (relu): ReLU()
  (distribution_mu): Linear(in_features=120, out_features=1, bias=True)
  (distribution_presigma): Linear(in_features=120, out_features=1, bias=True)
  (distribution_sigma): Softplus(beta=1, threshold=20)
)
[21:17:56] DeepAR.Train: Model: 
Net(
  (embedding): Embedding(30490, 20)
  (lstm): LSTM(27, 40, num_layers=3, dropout=0.1)
  (relu): ReLU()
  (distribution_mu): Linear(in_features=120, out_features=1, bias=True)
  (distribution_presigma): Linear(in_features=120, out_features=1, bias=True)
  (distribution_sigma): Softplus(beta=1, threshold=20)
)
[21:17:56] DeepAR.Train: Starting training for 20 epoch(s)
[21:17:56] DeepAR.Train: Starting training for 20 epoch(s)
[21:17:56] DeepAR.Train: Starting training for 20 epoch(s)
[21:17:56] DeepAR.Train: Starting training for 20 epoch(s)
[21:17:56] DeepAR.Train: Starting training for 20 epoch(s)
[21:17:56] DeepAR.Train: Starting training for 20 epoch(s)
…
